deepfit_classifier_v3.tflite (tflite, 23336 bytes, 8 tensors)

sequential/dense/BiasAdd/ReadVariableOp f4 [64]
000000 2a bb 9b 40 0d a7 b5 c0 fc 96 bd bf a5 dd b1 be
       4.866597 -5.676642 -1.4811702 -0.34739414
000010 26 30 b6 40 fb 29 12 c1 b9 29 6c bf 86 62 98 40
       5.6933775 -9.135249 -0.92251164 4.762027
000020 85 bf c1 40 78 c3 00 3e bc 46 d2 40 59 9c 8f c0
       6.054629 0.12574565 6.5711346 -4.4878354
000030 56 2f 7c c0 d3 0a 15 bf 86 69 29 c0 12 51 d9 bf
       -3.9403892 -0.5821964 -2.6470656 -1.6977866
000040 8e ee e7 bf cb 0c 7f c0 fe dd 7e 3f a5 53 63 c0
       -1.8119676 -3.9851558 0.99557483 -3.5519803
000050 75 31 e8 3f 2d aa 75 c0 7b 28 8f c0 83 cc a3 40
       1.8140093 -3.8385117 -4.4736915 5.118715
000060 da e4 37 be 83 06 38 bf 18 01 e3 bf af 7a 6e 3f
       -0.17958394 -0.71884936 -1.7734709 0.9315595
000070 8c 93 ea be 76 cf e5 3d 6a 4d 90 c0 03 6b 76 c0
       -0.45815694 0.11221211 -4.50945 -3.8502815
000080 ac 24 2c c1 2d 21 e5 bf de e3 91 40 f5 8b 74 c0
       -10.758953 -1.790075 4.559066 -3.8210423
000090 92 96 f1 c0 25 cd 47 c0 61 77 bb 40 10 a1 1d c1
       -7.54963 -3.121896 5.8583226 -9.851822
0000a0 24 b8 1d c0 7e 9d 06 c0 11 b9 32 bf a6 a1 f3 c0
       -2.464364 -2.1033626 -0.6981364 -7.6134825
0000b0 38 b1 47 c0 7f d8 1c c0 5d d5 8c bf 59 53 a0 be
       -3.1201916 -2.4507139 -1.1002613 -0.3131359
0000c0 f8 c2 99 c0 48 73 ea 3e c5 69 30 c1 c5 80 07 c0
       -4.80505 0.45791078 -11.025823 -2.1172345
0000d0 06 79 d5 3f c6 65 94 3e 54 dc be bf 44 0f 1d c0
       1.6677558 0.28983897 -1.4910989 -2.4540567
0000e0 13 70 e5 c0 ad ce 3a 3f 22 7d a7 3f 40 14 2d 40
       -7.169931 0.7297161 1.3085063 2.704361
0000f0 33 f9 12 c1 73 91 fc c0 87 2f 8b c0 7a eb 57 bf
       -9.18584 -7.892755 -4.3495517 -0.84343684

sequential/dense_3/BiasAdd/ReadVariableOp f4 [10]
000000 c0 a2 04 3f 94 9e 3b 40 11 c5 db 3f 5a 70 73 be
       0.51810837 2.9315538 1.7169515 -0.23773327
000010 b6 ec 86 be 26 af be bf f0 d0 8d 3c 20 15 0f 3e
       -0.2635247 -1.4897201 0.017311543 0.13972902
000020 be 8a 47 c0 3d 7f 10 c0
       -3.1178432 -2.257766

sequential/dense_2/BiasAdd/ReadVariableOp f4 [16]
000000 99 b4 ab c0 a4 8b a9 c0 0a 26 25 c0 d5 a2 ac c0
       -5.3657956 -5.298296 -2.5804467 -5.394877
000010 29 1a 47 c0 56 33 9b c0 bd 04 48 c0 b3 f1 fa bf
       -3.1109717 -4.8500166 -3.1252892 -1.9605011
000020 25 bb 1b c0 0e 6d 34 c0 68 4e 04 c0 a8 9c 3e c0
       -2.4332974 -2.8191562 -2.0672855 -2.9783115
000030 28 ff 21 c0 f3 7b 68 c0 ef ba 09 c0 a1 18 44 c0
       -2.5311985 -3.6325653 -2.1520345 -3.0640032

sequential/dense_1/BiasAdd/ReadVariableOp f4 [32]
000000 32 13 93 c0 05 4f f4 c0 be 16 fe bf ff db 32 c0
       -4.596093 -7.634646 -1.985069 -2.7946775
000010 f7 94 e4 c0 5c 35 94 c0 a5 6d 02 c0 91 3d ae c0
       -7.143184 -4.6315136 -2.0379422 -5.4450154
000020 46 ea d4 bf ad c9 0e c1 94 80 0a c1 e5 c3 4f c0
       -1.6633995 -8.924237 -8.656391 -3.2463315
000030 ce 73 03 c0 eb 6b f8 c0 30 83 ef bf 20 ae fa c0
       -2.0539432 -7.7631736 -1.871191 -7.8337555
000040 3e ed 96 c0 e0 47 41 c0 40 30 1b c0 e5 25 f9 c0
       -4.71646 -3.020012 -2.42482 -7.785876
000050 8f 95 c9 c0 be 06 2b c0 00 c0 5d c0 3b 50 69 c0
       -6.2995067 -2.6722865 -3.4648438 -3.6455219
000060 59 8d 36 c0 2d 61 ba c0 18 a1 72 c0 7d c3 53 c0
       -2.8523772 -5.8243623 -3.7910824 -3.3088067
000070 c6 1f 13 c0 7c ae fd c0 2e 96 94 c0 8a 87 3b c0
       -2.2988143 -7.9275494 -4.6433325 -2.9301476

sequential/dense/MatMul f4 [64, 36]
000000 0d 92 9c c0 9c ce 33 bf 2f de 60 c0 37 1a 92 3d
       -4.8928285 -0.70237136 -3.513561 0.07133906
000010 64 67 4a 40 c3 8e e1 bf aa 58 de c0 50 b3 d7 c0
       3.1625605 -1.7621692 -6.9483232 -6.7406387
000020 bd 0e ae 3e ef f8 5c 40 f1 32 dd bf 87 76 28 c0
       0.3399562 3.4526937 -1.7281171 -2.6322343
000030 dc 16 08 c0 d5 38 db bf 6b 9b bd 3e 23 b3 fc c0
       -2.1263952 -1.7126719 0.37032637 -7.8968673
000040 bc e5 03 c0 02 f9 79 c0 ce 6b 7e 40 c6 d5 b4 40
       -2.0608969 -3.9058232 3.9753299 5.6510954
000050 3b 15 92 40 82 af d3 40 69 6b ab 40 c9 26 a6 40
       4.5650916 6.6151743 5.3568616 5.1922345
000060 ef f9 73 40 52 99 1f 40 ea 59 f9 40 67 2d 38 c1
       3.8121297 2.493733 7.792226 -11.511085
000070 98 18 92 c1 40 c5 df 40 26 8e 5f c1 93 41 91 c1
       -18.262009 6.9928284 -13.972204 -18.157019
000080 b1 9c e4 3f 97 86 71 40 91 4b f9 bf 61 10 41 c0
       1.7860318 3.7738397 -1.9476186 -3.0166247
000090 76 94 04 40 ef c6 88 c0 1b 25 e0 bf a1 21 4b c0
       2.0715613 -4.274284 -1.7511324 -3.1739275
0000a0 96 4c 26 c1 ff e0 42 c0 e2 17 80 40 27 9a a6 41
       -10.393698 -3.0449827 4.0029154 20.82527
0000b0 6d 2a e4 c0 ad 58 99 c0 67 a5 04 41 20 0a cd bf
       -7.130179 -4.7920747 8.290381 -1.6018715
0000c0 c5 ec bf 40 be 48 68 c0 61 79 a8 3e c0 79 a7 40
       5.9976525 -3.6294398 0.32905105 5.233612
0000d0 cd 84 8c 3f 74 c8 da 3f c9 e8 21 40 d4 4d ba 40
       1.0978028 1.7092423 2.529833 5.8220005
0000e0 88 f9 e1 40 37 88 cf bf 93 28 94 c1 ca 69 db 40
       7.0617104 -1.6213444 -18.519812 6.8566637
0000f0 b3 34 1a bf c7 f4 55 c1 07 de c9 40 40 64 78 c1
       -0.6023666 -13.37226 6.308353 -15.524475
000100 38 34 76 bf 9c 93 d3 40 00 44 02 c1 40 d4 23 40
       -0.9617343 6.6117687 -8.141602 2.5598297
000110 eb f5 6e 40 04 02 51 40 ab 0d 32 41 61 f7 15 41
       3.7337596 3.265748 11.128337 9.372895
000120 72 eb 55 c0 fa 4d 96 c0 b5 9f 13 c0 69 04 b1 40
       -3.3424954 -4.6970186 -2.3066227 5.5317883
000130 6e ff 8a c1 0f b1 2b c0 93 b8 82 40 f4 b5 67 41
       -17.374722 -2.6826818 4.085031 14.481922
000140 2c cc 95 be b8 eb 7a c1 40 63 4f 41 2c fd cc 3f
       -0.29257333 -15.6825485 12.961731 1.6014762
000150 89 0c d3 40 43 2a 91 bf e4 7c 90 c0 e3 07 1b c0
       6.59528 -1.1341022 -4.5152454 -2.4223564
000160 c0 4f 3c c1 bb e5 43 3f 0f c6 9d c0 c9 85 7f 40
       -11.76947 0.76522416 -4.930427 3.9925406
000170 5a 26 cf 40 e5 f7 be 3d 27 3a ed 40 0e 47 84 40
       6.4734316 0.09324626 7.4133487 4.1336737
000180 7e 81 37 3f 76 2c 04 41 1c 3b c4 40 9d 78 df c1
       0.71681964 8.260855 6.1322155 -27.933893
000190 d6 a5 2d 3f 93 b9 74 3e 54 97 b6 c1 13 ec bc 40
       0.6783117 0.23898916 -22.82389 5.9038177
0001a0 a7 b8 0c c0 8c 06 92 c0 23 c2 aa 40 07 cd 46 40
       -2.1987703 -4.563299 5.3361983 3.1062639
0001b0 ac 18 2a c0 fe 4a 94 c0 a7 11 2e c0 25 da a6 40
       -2.6577559 -4.6341543 -2.7198274 5.214129
0001c0 29 f9 82 c1 3f d3 54 c0 cd b0 47 40 26 aa 66 41
       -16.37166 -3.3253934 3.120166 14.41654
0001d0 18 50 13 c0 e1 89 39 c1 83 1a 57 41 c2 cc ad 3f
       -2.3017635 -11.596162 13.443973 1.3578112
0001e0 8f a7 03 41 5e 92 3e c0 53 09 4c c0 9c aa 0b c0
       8.228408 -2.9776835 -3.188069 -2.1822882
0001f0 d4 88 27 c1 e9 46 40 3f 43 3c a7 c0 2e f8 91 40
       -10.470905 0.751082 -5.226106 4.5615454
000200 ab cd de 40 fa 53 ac bf 8e 2a 74 40 95 78 96 40
       6.962606 -1.3463128 3.8150973 4.7022195
000210 49 56 72 3d c4 ac 00 41 63 27 f5 40 06 c1 dd c1
       0.05916432 8.042179 7.661058 -27.71925
000220 25 ac 5e 3e dd 1f 43 40 ac b2 b9 c1 3e aa ab 40
       0.21745355 3.0488198 -23.212242 5.3645315
000230 df 4c 17 c0 9b a6 8e c0 12 8d c6 40 87 35 80 40
       -2.3640668 -4.4578376 6.2047205 4.006534
000240 f3 f1 4f c0 e2 8a 53 be 5e ff ba bf 9a cb 3d 3f
       -3.2491424 -0.20658448 -1.4609182 0.74138796
000250 d2 c4 2d 40 3f 44 f1 bf f0 e9 da c0 14 fd a3 c0
       2.715138 -1.8848952 -6.841057 -5.1246433
000260 30 5b 02 40 55 a3 60 40 9c cd 3a c0 4b 4e 52 c0
       2.0368156 3.509969 -2.9187994 -3.2860286
000270 1c 4b 58 c0 d7 cf 56 c0 bd 07 a9 bf db 63 16 c1
       -3.3795843 -3.3564355 -1.3205487 -9.399379
000280 6e bb f0 bf e2 20 cb c0 39 f3 c2 40 43 87 cc 40
       -1.8807199 -6.347764 6.0921903 6.3915114
000290 91 ef a8 40 ec 04 bf 40 e9 b6 e0 40 0a 49 b4 40
       5.279244 5.969351 7.022328 5.633916
0002a0 bb 65 41 40 dc 4d 3f 40 f6 df b3 40 be 4b 4a c1
       3.0218341 2.9891272 5.621089 -12.643492
0002b0 2b 77 90 c1 38 1b bd 40 d6 21 6f c1 14 60 93 c1
       -18.058187 5.9095726 -14.945761 -18.421913
0002c0 f7 bd ab 3f fc a0 bc 40 f9 05 d2 bf e1 98 66 bf
       1.3417348 5.8946514 -1.6408073 -0.90077025
0002d0 01 40 dc 3e 0d 71 8c 40 0d 7a 6f c0 df 94 25 c0
       0.4301758 4.3888 -3.7418244 -2.5872114
0002e0 1a 70 a5 41 23 3f cd 40 6f 21 10 40 39 5d 8b c1
       20.679737 6.413957 2.2520406 -17.420519
0002f0 4d 8b 31 40 7f db 52 3f e8 e5 80 c0 7d 4b 05 41
       2.7741272 0.82366174 -4.0280647 8.33093
000300 43 ec 3c c0 b8 a0 ef 40 31 93 66 c0 86 fe df 40
       -2.9519203 7.488369 -3.6027339 6.9998198
000310 be 45 99 40 a5 d9 47 3f 58 ef 00 bf 96 5d d7 c0
       4.7897635 0.78066474 -0.5036521 -6.730174
000320 f3 93 04 c1 31 f9 98 40 75 69 30 bf 33 ac dd c0
       -8.28612 4.780419 -0.68910915 -6.9272704
000330 f0 51 95 40 70 ec be 3d 82 f4 2c c1 46 8d b5 41
       4.666252 0.093224406 -10.809694 22.693981
000340 7a 55 b6 3f 65 44 ab c0 94 0b 30 41 29 25 47 40
       1.4244835 -5.352099 11.002827 3.111643
000350 b6 55 a8 3e 07 c3 be 3f 79 35 1b c0 dd a5 ce c0
       0.32877892 1.4903268 -2.4251387 -6.457747
000360 68 cb 07 41 6e 88 a8 3d 47 3f aa 40 01 be b4 bf
       8.48716 0.08229147 5.3202243 -1.4120485
000370 3f a5 41 c1 42 fd 57 c0 a1 ce dc c0 17 50 26 c1
       -12.102843 -3.3748326 -6.9002233 -10.394553
000380 c4 c8 db c0 bf 76 b6 41 98 7a 75 c0 61 95 9e c0
       -6.8682575 22.807981 -3.8356075 -4.9557347
000390 bd de 28 c0 6a c1 3d 40 37 e2 6c 40 13 eb f8 40
       -2.6385949 2.96493 3.701307 7.7786956
0003a0 71 c1 48 41 49 d0 11 c0 e3 30 f3 40 88 1d f4 c0
       12.547227 -2.2783377 7.5997176 -7.628605
0003b0 f2 41 17 c1 90 ed 15 c0 12 ff f9 41 01 60 0c c1
       -9.4536 -2.3426247 31.249546 -8.773438
0003c0 95 c2 6a bf 81 2b 06 42 10 a0 82 c1 47 fb dc 41
       -0.9170316 33.542484 -16.328156 27.622694
0003d0 9e e9 7f c1 9b c1 3e c1 e8 54 3f 41 bb 1e 8c c1
       -15.994535 -11.922267 11.958229 -17.515005
0003e0 db 6a 16 40 4c e3 99 40 07 17 1f bf 2e a0 56 be
       2.350272 4.808996 -0.6214451 -0.20959541
0003f0 d5 ff 45 c0 a9 a4 17 3f f3 6a 4e bf 5c 13 17 3f
       -3.0937397 0.59235626 -0.8063194 0.59013915

sequential/dense_1/MatMul f4 [32, 64]
000000 64 f6 54 3c 24 80 8e c1 ec 2e f3 bf 8d 8d 2a c0
       0.012998197 -17.812569 -1.8998694 -2.6648896
000010 33 42 d2 3e 28 b8 aa bd a3 76 b6 be 18 25 89 3e
       0.4106613 -0.08335906 -0.35637388 0.26786113
000020 8e 3c 76 bf bc 91 5c c0 9c f8 f6 3e d8 1b 34 41
       -0.9618615 -3.446395 0.4823655 11.256798
000030 c5 3e a0 3e dc b8 2f bf 72 4d a8 40 3c 52 94 c0
       0.3129789 -0.6864145 5.259454 -4.6350384
000040 d8 98 4e 3e 97 77 26 3f 91 b8 6b 3f 45 09 8c 3e
       0.20175493 0.6502623 0.920785 0.27350822
000050 e2 de 23 3f 4e ef a8 3e 51 60 d6 40 d4 a4 44 3e
       0.6401197 0.32995075 6.6992574 0.19203502
000060 c1 ef d0 c0 15 6e c9 be 71 21 f4 be 6a b3 d5 3f
       -6.529267 -0.39341798 -0.47681764 1.6695378
000070 0e 24 5d bf c0 4c f5 3e fc 94 0f 41 bb 30 12 c0
       -0.8638314 0.47910118 8.973873 -2.2842243
000080 33 cd a3 3c f4 6f ad c0 35 65 81 bf 5a 63 c2 3e
       0.019995308 -5.419916 -1.0109011 0.37966424
000090 54 3d 28 3c 68 5b 1d 41 d8 42 54 be c7 9d 73 3d
       0.010268528 9.834816 -0.20728624 0.05947664
0000a0 64 48 2c c0 f2 a8 9a c0 e0 6d 9b 3e bb 80 a5 bd
       -2.6919184 -4.833123 0.30357265 -0.08081194
0000b0 b3 ae 43 c1 ca 4e ec 3f 61 15 83 c0 13 d2 44 40
       -12.230151 1.8461545 -4.0963597 3.075322
0000c0 93 62 00 3e 02 92 f0 c0 31 9a d4 3f 78 a0 9d bf
       0.12537603 -7.517823 1.6609555 -1.2314596
0000d0 e9 bd 80 3c db db 0f bf 9f a4 ad c0 c3 d2 11 c0
       0.015715556 -0.5619485 -5.4263453 -2.2784889
0000e0 17 f1 05 be 24 f9 21 c0 5f e2 3d 3f 9a c8 9f 3f
       -0.1308025 -2.5308313 0.7417354 1.2483094
0000f0 68 15 ce 3d e7 e7 f1 bd c4 30 36 41 8f 56 a1 bf
       0.10062677 -0.1181181 11.386906 -1.260454
000100 b7 b5 74 40 2a b9 53 bf 7e a3 dc 3e 96 78 8f 3f
       3.823591 -0.8270441 0.43093485 1.1208675
000110 0b 0d 67 40 d4 8c b0 c0 76 cc d7 3c a9 5d 73 40
       3.610171 -5.517191 0.026342612 3.8025916
000120 63 d7 a3 40 2e ec 1f 3e fd b7 48 40 db bf 5e bf
       5.1200423 0.15617439 3.1362298 -0.870115
000130 46 4c 2d 3f 1d 1d 32 3f c8 fc 0b 3f f8 33 2e 3f
       0.6769451 0.69575673 0.5468259 0.6804805
000140 a3 eb e2 3f 51 84 8a 3f 1f ec 9f 40 de 06 0a 3f
       1.7728161 1.082163 4.9975734 0.5391673
000150 fb 8f 9e 40 bf b3 9c bf e5 de e3 3f 91 f4 a2 40
       4.9550757 -1.2242354 1.7802397 5.0923543
000160 d3 49 3c 3e fc dc 82 be 0d 95 19 40 cf d3 88 40
       0.18387537 -0.25559223 2.3997223 4.2758555
000170 d3 df 45 3f f6 60 83 be 52 e8 bc bf 3b 66 1c 3f
       0.77294654 -0.25659913 -1.4758399 0.6109349
000180 a7 d5 d1 c0 31 8e 1c 3e e9 57 23 40 6e a2 99 be
       -6.5573306 0.15288617 2.5522406 -0.30006737
000190 ff c4 cb bf dd 5c a8 be fa ae 57 40 0d 03 73 c0
       -1.5919493 -0.3288335 3.3700547 -3.7970612
0001a0 a4 58 78 3e 3b bc 23 3f d9 fb 19 3f fa 8d b4 bf
       0.24252564 0.6395909 0.60149914 -1.4105828
0001b0 10 60 fd 3d 1d 11 46 be e7 d3 32 40 16 f2 4e 40
       0.12371838 -0.19342466 2.7941835 3.2335258
0001c0 c7 1b 4b bf d6 0a 99 3e 96 f5 2a bf 1f ce 1f bf
       -0.7933926 0.2989108 -0.66780984 -0.6242389
0001d0 4b 8e 99 3f 70 0c 06 3f 38 dd b1 3f 28 f3 e3 3e
       1.1996549 0.5236273 1.3895636 0.4452145
0001e0 0c 0d 3b bf c6 e5 be 3e cb 04 9b 40 a3 0a 61 40
       -0.7306678 0.37284678 4.844335 3.5162742
0001f0 20 e9 d0 bf 77 16 cf be 7f ad a7 bf c7 1b 4d 3f
       -1.6321144 -0.40446827 -1.3099822 0.8012051
000200 30 ad 1b c0 83 f4 2b 40 c6 99 8a 40 37 1d 0b 40
       -2.4324455 2.6867988 4.331271 2.1736581
000210 cf f3 71 c0 96 97 55 c0 dc 6a 83 c0 0e b7 80 c0
       -3.780506 -3.337377 -4.1067944 -4.0223455
000220 f1 23 59 c0 63 39 38 c0 17 3f a8 c0 ba 28 b4 c0
       -3.3928187 -2.8785026 -5.2577014 -5.6299715
000230 07 93 de bd ea c4 ed c0 19 82 ad bf 11 d2 25 40
       -0.10867887 -7.4302874 -1.3555328 2.5909464
000240 32 5f 56 40 64 17 97 bf d9 dc 9c c0 0a 54 e9 3e
       3.3495603 -1.1804013 -4.901959 0.4557193
000250 17 68 55 c0 4d ec 04 bf aa 59 48 c0 61 d1 36 c0
       -3.3344781 -0.51923066 -3.1304727 -2.8565295
000260 f3 d7 f4 bf 16 4f 1f c1 b6 92 8b 3f fa f9 91 bf
       -1.9128402 -9.956808 1.0904148 -1.1404412
000270 56 15 91 c0 5c 42 2f 40 2a aa fe c0 b9 d9 9b 40
       -4.5338545 2.7384253 -7.958272 4.8703275
000280 fa db 99 c0 dc fd 74 c0 35 ca f2 bf e6 28 69 be
       -4.8081026 -3.8279943 -1.8967959 -0.22769508
000290 ff 0f 15 c1 ab 60 e0 c0 4c ff ae bf 82 c8 a8 c0
       -9.316405 -7.0118003 -1.367166 -5.274476
0002a0 25 cc 0d c0 8c dc 0c c0 60 4e 10 c1 54 fe 0e c1
       -2.215585 -2.200961 -9.0191345 -8.937092
0002b0 09 fe 1b 40 84 62 2b 40 f6 63 25 bf fe 94 9b 40
       2.43738 2.677888 -0.64605653 4.8619375
0002c0 5f 93 48 c1 f2 fe a3 bf 96 13 35 c0 94 9d b1 3e
       -12.535979 -1.2812178 -2.8293204 0.34690535
0002d0 c4 70 8e c1 67 6c 95 3f a8 cc 21 c0 f4 21 c7 be
       -17.805061 1.1673707 -2.5281162 -0.38893092
0002e0 f8 fb 22 c1 c6 b0 9f 3f 7d 5f 9c c0 78 4a 21 c0
       -10.186516 1.2475822 -4.8866563 -2.5201702
0002f0 74 1a ac c0 fd c5 13 c1 ab ac b4 c0 1d 82 27 c1
       -5.378229 -9.235837 -5.6460776 -10.469266
000300 d0 71 b3 be b7 a6 bc 3e 75 17 38 3e 15 d3 60 3f
       -0.3504777 0.36845943 0.17977698 0.87822086
000310 c7 49 8b 3e 58 6d 3c be d0 2c 05 41 1a b3 fe bf
       0.27204725 -0.18401086 8.323441 -1.9898407
000320 f6 94 84 bf ed ce 34 c1 84 87 48 bf 8c 93 a7 c0
       -1.0357959 -11.300519 -0.7833178 -5.236761
000330 06 6f 30 c1 d5 29 9f 40 51 a2 43 41 43 39 10 3f
       -11.027105 4.9738564 12.227128 0.56337374
000340 9e 9d 00 41 93 92 37 c1 c2 8a 2a c0 47 30 20 c1
       8.038481 -11.473285 -2.664719 -10.011786
000350 4b 1c 2e c0 f1 75 40 c1 40 9f b5 bf af 92 55 c0
       -2.7204769 -12.028794 -1.4189224 -3.3370779
000360 5b fd 55 c1 25 f3 3a 40 44 87 00 c1 8e 72 a4 40
       -13.374354 2.9210904 -8.033024 5.1389837
000370 4e 44 85 3f 6a ba ab 40 f3 39 e6 3f be 4d 16 c1
       1.041147 5.3665056 1.7986435 -9.39398
000380 94 88 6e be ba 99 7c c1 d6 56 41 40 75 3c 3e c1
       -0.23294288 -15.787531 3.020925 -11.88976
000390 8d e8 30 3d 9a 4b 1b bf d2 4e 0d bf 8f f8 2a 3e
       0.043190528 -0.60662234 -0.55198395 0.1669638
0003a0 f0 e0 ab c1 b9 3f 94 c1 0d 57 a0 40 82 f3 84 be
       -21.484833 -18.531115 5.0106263 -0.25967032
0003b0 4e 57 4e 3f 8b 0c d2 be b4 42 2a c1 60 0a f8 40
       0.80601966 -0.41025195 -10.641285 7.7512665
0003c0 dc cb de 3e ed 18 58 c1 ac c3 14 c1 b9 97 1f c1
       0.43514907 -13.506085 -9.297771 -9.974542
0003d0 4f 97 88 40 fc e1 03 41 4f 2d 6a c1 e4 db a3 c1
       4.2684703 8.242672 -14.636062 -20.482368
0003e0 09 6a 4e 3e c5 16 9d 3d 2a a8 f8 bf 1a 06 f5 40
       0.20157637 0.076703586 -1.942632 7.656995
0003f0 05 80 25 be 6e c5 76 be 02 d2 40 c0 9c 87 d6 3f
       -0.16162117 -0.24098751 -3.0128179 1.6760135

sequential/dense_2/MatMul f4 [16, 32]
000000 11 44 e7 3f bf 71 ef c0 45 d5 52 40 32 e3 50 3e
       1.8067647 -7.482635 3.294267 0.20399168
000010 40 5d 83 c0 6d f0 48 3e dd d0 72 40 7f d3 5a 3f
       -4.105133 0.19622965 3.793998 0.8547897
000020 72 02 46 40 16 e7 ff c0 8f 03 f0 c0 21 18 e1 3e
       3.0938993 -7.9969587 -7.5004344 0.4396372
000030 4b 46 4a 40 56 e4 de c0 8d 49 48 40 ed 4a 0a c1
       3.1605403 -6.965373 3.1294892 -8.643292
000040 0f f4 d8 3f 91 fe 92 3e bf e7 4c 40 6f 72 c0 c0
       1.6949481 0.28709844 3.2016447 -6.013969
000050 ca 68 bf c0 e7 3c 59 3d 62 f5 1e 40 f7 00 03 40
       -5.9815416 0.053036597 2.483727 2.046934
000060 0b fc 97 3e e3 95 5b 3f e0 62 2d 3e d6 d6 cc 3e
       0.2968448 0.85775584 0.16932249 0.40007657
000070 17 d3 52 40 81 d9 d5 c0 a8 43 5b c0 bf ba 1c 3e
       3.294134 -6.682801 -3.4260044 0.15305613
000080 ba 52 5e 40 9d a4 29 3e 7a dd 8c c2 c7 2e db 3d
       3.4737992 0.16566701 -70.43257 0.107022814
000090 4f 70 4e 3e 5d 2f b6 3e 1b b5 93 c2 6f bf 0d bf
       0.2016003 0.3558301 -73.85372 -0.5537023
0000a0 10 58 8d c2 f9 62 72 3e 44 7a 60 3e 63 a2 57 3e
       -70.672 0.23670568 0.2192164 0.2105804
0000b0 a2 8c 93 c2 a5 66 08 3e d3 bb 89 c2 f9 1e 96 3e
       -73.77467 0.13320406 -68.866844 0.29320505
0000c0 ed ac 64 40 99 37 04 3e d8 ee c8 c1 c0 6e ea 3d
       3.5730546 0.12911834 -25.116623 0.11446905
0000d0 a4 07 44 3e 88 0e f2 3c 2e 45 39 3f 29 2f 7a 3f
       0.1914354 0.029547945 0.72371185 0.9772821
0000e0 0f 26 97 3e 5e 77 02 bf 8e 34 84 3e cb 26 9b 3e
       0.29521224 -0.5096339 0.25821346 0.30303034
0000f0 63 e0 98 c2 e0 06 d5 3e 3a f1 90 3d 90 a7 68 3e
       -76.438255 0.41606808 0.0707726 0.2272017
000100 94 93 f8 bc 14 09 d5 40 79 3c c4 c1 04 a0 d6 bf
       -0.030343808 6.657358 -24.529528 -1.6767583
000110 dd 2e d3 40 c1 d9 9f bf a1 52 b3 c1 36 41 5a 3e
       6.5994706 -1.2488328 -22.415346 0.21313938
000120 6d 6d 99 c1 c5 40 0f 41 10 6f e7 40 52 0b cc bf
       -19.17843 8.953313 7.2323074 -1.5940955
000130 f7 5f a5 c1 bd 4b f5 40 90 fd c6 c1 78 e2 05 41
       -20.671858 7.6654954 -24.87381 8.36779
000140 a9 08 7a be a5 a8 b7 bf 27 ca c9 c1 ef ab 11 41
       -0.24417366 -1.4348341 -25.223707 9.104476
000150 c2 42 87 40 45 d2 ba bf 2f 6d c1 bf 6a d1 50 bf
       4.226899 -1.4595419 -1.5111445 -0.8156954
000160 23 3a da bf bd 47 c4 3e ba 44 f4 bf 6d 99 a5 bf
       -1.7048992 0.38335982 -1.9083474 -1.2937447
000170 39 ea c0 c1 d9 88 0b 41 57 2e 04 40 c6 26 af bf
       -24.114367 8.72091 2.0653284 -1.3683708
000180 a2 82 c5 41 93 16 8b c0 e8 c3 af 3d 34 83 b0 41
       24.688786 -4.3465056 0.08582288 22.064064
000190 32 6f 14 c1 b3 37 aa 41 c6 b4 84 bd ce e6 11 c0
       -9.277147 21.277197 -0.06479792 -2.2797122
0001a0 e8 49 e1 3e 6e ec 39 c0 6b 37 73 c0 9b 4f 60 41
       0.44001698 -2.9050555 -3.8002574 14.019435
0001b0 99 de ee 3d d3 83 ae c0 01 ec 59 3e 29 71 90 c0
       0.11663551 -5.453592 0.21281435 -4.5138135
0001c0 b3 c2 ce 41 68 a6 a1 41 b6 e9 3e 40 5e 39 5a c0
       25.845068 20.206253 2.9830146 -3.4097514
0001d0 36 13 c6 c0 9b 3a 9e 41 96 a0 55 41 9f 52 63 41
       -6.189845 19.778616 13.351706 14.207671
0001e0 79 99 ac 41 bf dd 78 c0 b2 47 a0 41 66 ea 9d 41
       21.574938 -3.8885343 20.035007 19.739452
0001f0 e2 64 85 3e b7 36 bc c0 e8 89 45 c1 c5 07 ae 41
       0.2605353 -5.881679 -12.3461685 21.753794
000200 8b 88 2f bf 3a fb ca c0 96 3c 79 40 2c d5 42 c0
       -0.68567723 -6.3431673 3.8943229 -3.044261
000210 f1 9a 51 bf 02 95 9b c0 56 8d 9d 40 d5 77 b7 3e
       -0.81877047 -4.8619394 4.923503 0.35833612
000220 ac 76 08 40 2c 47 8f bf ae ef 1b c0 69 af 0d c0
       2.1322432 -1.1193595 -2.436504 -2.2138312
000230 d0 bf 29 40 f5 bf d3 c0 7e cf 67 40 2b ab 58 bf
       2.6523323 -6.6171823 3.6220393 -0.8463618
000240 a2 72 5a c0 fe 3d 35 c0 02 45 0e 40 d6 bd ae c0
       -3.4132466 -2.8319087 2.222962 -5.4606733
000250 00 fe d0 bf 92 39 0f c0 17 29 09 be c8 c1 57 3e
       -1.6327515 -2.2378888 -0.13394581 0.21070015
000260 7b 54 3f c0 ec 46 4f 3e 9a 16 36 c0 c0 1e 3e c0
       -2.9895313 0.20241898 -2.8451295 -2.9706268
000270 5e c3 ae 40 72 60 f9 bf cd ad dc be eb 07 16 c0
       5.4613485 -1.9482558 -0.4310135 -2.3442333
000280 d5 4f 82 40 20 c9 49 3e 52 24 23 c2 90 67 26 3e
       4.072245 0.1970563 -40.78547 0.16250443
000290 1b 48 b8 3e 50 25 92 3e ff 42 2e c2 eb ef 80 c1
       0.35992512 0.28544092 -43.565426 -16.117147
0002a0 de b3 21 c2 84 fb 5c 3e a0 45 31 3e 40 38 32 3e
       -40.42565 0.2158032 0.17311716 0.1740427
0002b0 38 86 2a c2 09 2b 79 bd c5 14 18 c2 5c 16 43 3e
       -42.631073 -0.060832057 -38.020283 0.19051498
0002c0 e2 2c 8a 40 a2 09 8d 3e bb ee b2 c1 65 df b1 3e
       4.317979 0.27546412 -22.366568 0.3474075
0002d0 34 cf 5f 3d 76 44 3f be 48 f6 51 3f 1c 65 b9 3f
       0.054640964 -0.1867846 0.8201642 1.4483981
0002e0 ed 32 4f 3e 6a 44 54 bf 4a 4e bc 3d e9 1d ab 3e
       0.2023427 -0.8291689 0.0919462 0.33421257
0002f0 fb 02 3f c2 af 13 66 3e 92 a0 39 3e 22 64 be 3e
       -47.75291 0.22468446 0.18127659 0.3718577
000300 06 d9 93 3e 52 82 0e c0 ca 3d 48 40 b4 d1 57 be
       0.28876513 -2.2267041 3.1287713 -0.21076089
000310 41 d5 a7 bf 07 a0 34 be b6 5e 67 40 cb ee 3e 3e
       -1.3111955 -0.1763917 3.6151557 0.1864578
000320 ee a7 0d 40 f8 c0 83 c0 0c c3 25 c0 17 71 f0 be
       2.2133746 -4.1173058 -2.5900297 -0.4696128
000330 89 4d 3b 40 02 14 54 c0 32 2c 4b 40 a8 b7 3c c0
       2.9266074 -3.3137212 3.1745725 -2.9487095
000340 b5 7d dc 3c d8 d7 c3 be 7f b4 7f 40 c1 bd 36 c0
       0.02691541 -0.38250613 3.9953916 -2.8553317
000350 12 49 9b bf c6 26 49 bf ae 67 b6 3e 14 98 d8 bd
       -1.2131674 -0.7857479 0.35625976 -0.105758816
000360 d5 af 9f 3c ae 4d ee 3d f9 11 0a bf d9 eb 94 bd
       0.019493023 0.1163591 -0.53933674 -0.07271547
000370 f8 60 a7 40 9e 9a 9d c0 58 56 8c bf a0 63 41 be
       5.230587 -4.925124 -1.096385 -0.1888566
000380 27 ec ec c1 91 b9 fb 40 f2 94 2e 3c f4 00 0f c2
       -29.615309 7.866402 0.0106556285 -35.75093
000390 7c 37 d7 40 82 c4 29 c2 6f 13 80 bb 7f 90 35 3f
       6.725523 -42.441902 -0.0039085667 0.7092361
0003a0 81 8c 09 bd 30 a5 09 40 2a 01 4e 40 93 8a e0 c1
       -0.03358126 2.1507072 3.218821 -28.067663
0003b0 e5 48 02 3e 36 d5 cd 3f 54 04 18 be 8f 6d 83 40
       0.1272312 1.6080692 -0.14845401 4.107124
0003c0 40 a9 23 c2 ee 61 12 c2 41 27 51 c0 bc b8 60 40
       -40.915283 -36.595634 -3.2680209 3.5112753
0003d0 56 e3 17 41 d3 5c 0c c2 bf bf 11 c2 ef f3 c0 c1
       9.493002 -35.09065 -36.437252 -24.119108
0003e0 0a ef 13 c2 b7 da 5d 3f be 02 09 c2 24 a6 48 c2
       -36.983437 0.8666186 -34.252678 -50.162247
0003f0 d9 73 83 3b 3a 52 3a 40 1a 06 45 41 65 33 15 c2
       0.004011613 2.9112687 12.31399 -37.30019

sequential/dense_3/MatMul f4 [10, 16]
000000 92 18 71 c1 71 cd 05 c1 d5 3a a5 3f 38 67 3b bd
       -15.068499 -8.362657 1.2908579 -0.045752734
000010 fb 6d 93 bf 7a 86 98 c0 8e c3 18 c0 d4 81 4f c0
       -1.1517938 -4.7664156 -2.3869357 -3.242299
000020 8a 51 f1 3e 60 24 52 bf dc cc 9f bd 66 34 74 bf
       0.47132522 -0.82086754 -0.07802746 -0.95392454
000030 c1 50 5f bf ec 07 50 c0 4d 78 a9 c0 4a 45 3f bf
       -0.87232596 -3.2504835 -5.295935 -0.747151
000040 aa d0 20 bf 25 9c b8 3f d0 d1 a9 c1 bc 00 fc 3e
       -0.62818396 1.4422652 -21.227448 0.4921931
000050 a6 5c 28 c2 63 b7 3d 3e 55 20 49 c1 53 98 97 c1
       -42.090477 0.18526988 -12.570394 -18.949377
000060 a7 7e a9 c1 60 aa 94 c1 35 4c a8 c1 fe a2 d0 c1
       -21.186842 -18.58319 -21.03721 -26.079586
000070 cb 7c 06 c2 8a fa 6b c1 56 52 91 c1 e0 8f e9 c0
       -33.62187 -14.748667 -18.165203 -7.298813
000080 45 5d 74 c1 58 25 64 c1 f5 97 36 c0 35 3f e9 3e
       -15.272771 -14.259117 -2.8530247 0.45556036
000090 fb 50 06 c1 4c e7 11 c1 04 c6 2e c0 9c 25 66 c2
       -8.394771 -9.118969 -2.730836 -57.536728
0000a0 b7 8f 43 c0 0d 59 44 c0 ed 5b 21 c2 63 4c 9f c0
       -3.0556467 -3.0679352 -40.33977 -4.9780746
0000b0 ee df a8 c1 cf 0f 96 c0 8e 93 56 c2 3e d0 82 bf
       -21.10934 -4.6894298 -53.644096 -1.02198
0000c0 2f 7f 48 c2 3a fe 1d 40 02 97 58 40 bb b7 07 c0
       -50.124203 2.4686418 3.3842168 -2.120589
0000d0 1a 0d f0 c1 10 5c d4 3e fa 93 2a c2 cc 66 4e 40
       -30.006397 0.41476488 -42.64451 3.2250242
0000e0 f5 df 3d 40 94 cf 07 c2 00 db 4a 40 e7 b7 09 c2
       2.9667943 -33.952713 3.1696167 -34.429592
0000f0 7c 2f 14 40 00 b8 7d c2 43 17 88 40 ab 31 cc c2
       2.3153982 -63.429688 4.2528396 -102.09701
000100 d7 a1 19 c1 63 61 9b 40 09 95 57 40 09 c9 3b 3f
       -9.602012 4.855638 3.3684714 0.7335363
000110 5b 7e 55 c3 51 e4 5b 40 ff 9a 79 c3 d7 22 47 bf
       -213.49358 3.4358103 -249.60545 -0.77787536
000120 82 65 3c 40 d0 8d 0f c3 74 e6 8a be 39 20 48 c3
       2.9436955 -143.55396 -0.27128947 -200.12587
000130 51 bf 0a 40 b1 7e e7 c2 04 1a 1d bf 54 6f 58 c1
       2.167927 -115.747444 -0.6136782 -13.52718
000140 87 ab 01 be b1 b4 87 c2 27 7f 11 40 c6 3d 5b c2
       -0.12663089 -67.85291 2.2733858 -54.810326
000150 4a f0 1b 3e d2 c2 25 c2 7b 52 7b bf 32 52 3e 40
       0.15228382 -41.440254 -0.9817273 2.9737668
000160 75 00 2d 40 ff 17 10 be a3 0c 3f 40 0b bf 52 be
       2.703153 -0.14071654 2.9851463 -0.2058069
000170 2f 07 0e 40 01 03 b7 bf 44 f3 73 40 a4 c1 b9 c0
       2.2191885 -1.4297792 3.8117228 -5.804888
000180 74 51 0e 40 aa 60 94 40 43 66 74 c1 90 7f 07 3f
       2.2237215 4.6368 -15.274966 0.5292902
000190 2d 93 92 c1 7c 4f 36 40 41 26 20 c0 c8 ac 00 c2
       -18.321863 2.8486013 -2.5023348 -32.16873
0001a0 ca 1d 81 c1 4b 20 2d c1 85 db 01 c2 50 ea 89 c1
       -16.139545 -10.820384 -32.464375 -17.23941
0001b0 13 66 ed c1 1d ec 68 3f 98 66 d1 c1 45 7e 0d 40
       -29.67484 0.9098528 -26.175095 2.2108319
0001c0 27 b6 66 be ab 45 7b c2 c9 8e 41 c1 ae ed 02 3f
       -0.22530423 -62.818035 -12.09736 0.5114392
0001d0 50 76 94 3f aa ab 1d c2 df 19 5c 3f 00 2d 22 c1
       1.1598606 -39.41764 0.85976976 -10.135986
0001e0 28 52 34 c1 39 23 b4 3f 1a 7b f5 c0 ec da 9c 3f
       -11.270058 1.4073249 -7.671277 1.225431
0001f0 13 5a 1d c1 6e c9 a6 3f f0 30 5a c1 98 f5 ed 3e
       -9.834491 1.3030221 -13.636948 0.46476436
000200 b6 19 09 40 9e 1c 05 c3 70 68 d0 c0 b6 69 c9 bf
       2.1421943 -133.11179 -6.5127487 -1.5735385
000210 e4 14 22 40 30 f5 c2 c2 9c f9 0c 40 a3 f7 0d 40
       2.532525 -97.47888 2.202735 2.2182395
000220 24 a5 b3 3f 34 ff 29 40 1c 38 28 40 30 1f 0d 40
       1.4034772 2.6562014 2.6284246 2.2050285
000230 f2 4a e1 3f 8e f0 3a 40 13 d5 2c 40 da ef bf 3f
       1.7600996 2.9209323 2.700505 1.4995072
000240 b7 6a 1f 40 55 7b a5 c1 55 91 f7 c1 d4 e3 ed 3e
       2.4908884 -20.68522 -30.945963 0.46462882
000250 4a c5 32 40 12 81 a1 c1 95 6c 12 40 f1 a8 be c1
       2.7932916 -20.188023 2.2878773 -23.83249
000260 18 23 e6 c1 04 cf 29 40 41 cf 96 c1 3f a8 17 40
       -28.767136 2.6532602 -18.851198 2.369644
000270 0a df 9b c1 ea 96 41 40 ba 51 dd c1 4f b6 13 40
       -19.483906 3.024836 -27.664906 2.3080022
